…
[38;5;15m  [39m[38;5;197mKEYPOINT_OKS_SIGMAS[39m[38;5;15m:[39m[38;5;15m [39m[]
[38;5;15m  [39m[38;5;197mPRECISE_BN[39m[38;5;15m:[39m
[38;5;15m    [39m[38;5;197mENABLED[39m[38;5;15m:[39m[38;5;15m [39mfalse
[38;5;15m    [39m[38;5;197mNUM_ITER[39m[38;5;15m:[39m[38;5;15m [39m200
[38;5;197mVERSION[39m[38;5;15m:[39m[38;5;15m [39m2
[38;5;197mVIS_PERIOD[39m[38;5;15m:[39m[38;5;15m [39m0

[12/08 04:46:21] detectron2 INFO: Full config saved to output/yolof/CSP_D_53_DC5_9x/config.yaml
[12/08 04:46:21] d2.utils.env INFO: Using a generated random seed 21446286
[12/08 04:46:30] d2.engine.defaults INFO: Model:
YOLOF(
  (backbone): DarkNet(
    (conv1): Conv2d(3, 32, kernel_size=(3, 3), stride=(1, 1), padding=(1, 1), bias=False)
    (bn1): SyncBatchNorm(32, eps=0.0001, momentum=0.03, affine=True, track_running_stats=True)
    (act1): MishCuda()
    (layer1): CrossStagePartialBlock(
      (base_layer): Sequential(
        (0): Conv2d(32, 64, kernel_size=(3, 3), stride=(2, 2), padding=(1, 1), bias=False)
        (1): SyncBatchNorm(64, eps=0.0001, momentum=0.03, affine=True, track_running_stats=True)
        (2): MishCuda()
      )
      (partial_transition1): Sequential(
        (0): Conv2d(64, 64, kernel_size=(1, 1), stride=(1, 1), bias=False)
        (1): SyncBatchNorm(64, eps=0.0001, momentum=0.03, affine=True, track_running_stats=True)
        (2): MishCuda()
      )
      (stage_layers): Sequential(
        (0): DarkBlock(
          (downsample): Sequential(
            (0): Conv2d(64, 64, kernel_size=(1, 1), stride=(1, 1), bias=False)
            (1): SyncBatchNorm(64, eps=0.0001, momentum=0.03, affine=True, track_running_stats=True)
            (2): MishCuda()
          )
          (bn1): SyncBatchNorm(32, eps=0.0001, momentum=0.03, affine=True, track_running_stats=True)
          (bn2): SyncBatchNorm(64, eps=0.0001, momentum=0.03, affine=True, track_running_stats=True)
          (conv1): Conv2d(64, 32, kernel_size=(1, 1), stride=(1, 1), bias=False)
          (conv2): Conv2d(32, 64, kernel_size=(3, 3), stride=(1, 1), padding=(1, 1), bias=False)
          (activation): MishCuda()
        )
      )
      (partial_transition2): Sequential(
        (0): Conv2d(64, 64, kernel_size=(1, 1), stride=(1, 1), bias=False)
        (1): SyncBatchNorm(64, eps=0.0001, momentum=0.03, affine=True, track_running_stats=True)
        (2): MishCuda()
      )
      (fuse_transition): Sequential(
        (0): Conv2d(128, 64, kernel_size=(1, 1), stride=(1, 1), bias=False)
        (1): SyncBatchNorm(64, eps=0.0001, momentum=0.03, affine=True, track_running_stats=True)
        (2): MishCuda()
      )
    )
    (layer2): CrossStagePartialBlock(
      (base_layer): Sequential(
        (0): Conv2d(64, 128, kernel_size=(3, 3), stride=(2, 2), padding=(1, 1), bias=False)
        (1): SyncBatchNorm(128, eps=0.0001, momentum=0.03, affine=True, track_running_stats=True)
        (2): MishCuda()
      )
      (partial_transition1): Sequential(
        (0): Conv2d(128, 64, kernel_size=(1, 1), stride=(1, 1), bias=False)
        (1): SyncBatchNorm(64, eps=0.0001, momentum=0.03, affine=True, track_running_stats=True)
        (2): MishCuda()
      )
      (stage_layers): Sequential(
        (0): DarkBlock(
          (downsample): Sequential(
            (0): Conv2d(128, 64, kernel_size=(1, 1), stride=(1, 1), bias=False)
            (1): SyncBatchNorm(64, eps=0.0001, momentum=0.03, affine=True, track_running_stats=True)
            (2): MishCuda()
          )
          (bn1): SyncBatchNorm(64, eps=0.0001, momentum=0.03, affine=True, track_running_stats=True)
          (bn2): SyncBatchNorm(64, eps=0.0001, momentum=0.03, affine=True, track_running_stats=True)
          (conv1): Conv2d(64, 64, kernel_size=(1, 1), stride=(1, 1), bias=False)
          (conv2): Conv2d(64, 64, kernel_size=(3, 3), stride=(1, 1), padding=(1, 1), bias=False)
          (activation): MishCuda()
        )
        (1): DarkBlock(
          (bn1): SyncBatchNorm(64, eps=0.0001, momentum=0.03, affine=True, track_running_stats=True)
          (bn2): SyncBatchNorm(64, eps=0.0001, momentum=0.03, affine=True, track_running_stats=True)
          (conv1): Conv2d(64, 64, kernel_size=(1, 1), stride=(1, 1), bias=False)
          (conv2): Conv2d(64, 64, kernel_size=(3, 3), stride=(1, 1), padding=(1, 1), bias=False)
          (activation): MishCuda()
        )
      )
      (partial_transition2): Sequential(
        (0): Conv2d(64, 64, kernel_size=(1, 1), stride=(1, 1), bias=False)
        (1): SyncBatchNorm(64, eps=0.0001, momentum=0.03, affine=True, track_running_stats=True)
        (2): MishCuda()
      )
      (fuse_transition): Sequential(
        (0): Conv2d(128, 128, kernel_size=(1, 1), stride=(1, 1), bias=False)
        (1): SyncBatchNorm(128, eps=0.0001, momentum=0.03, affine=True, track_running_stats=True)
        (2): MishCuda()
      )
    )
    (layer3): CrossStagePartialBlock(
      (base_layer): Sequential(
        (0): Conv2d(128, 256, kernel_size=(3, 3), stride=(2, 2), padding=(1, 1), bias=False)
        (1): SyncBatchNorm(256, eps=0.0001, momentum=0.03, affine=True, track_running_stats=True)
        (2): MishCuda()
      )
      (partial_transition1): Sequential(
        (0): Conv2d(256, 128, kernel_size=(1, 1), stride=(1, 1), bias=False)
        (1): SyncBatchNorm(128, eps=0.0001, momentum=0.03, affine=True, track_running_stats=True)
        (2): MishCuda()
      )
      (stage_layers): Sequential(
        (0): DarkBlock(
          (downsample): Sequential(
            (0): Conv2d(256, 128, kernel_size=(1, 1), stride=(1, 1), bias=False)
            (1): SyncBatchNorm(128, eps=0.0001, momentum=0.03, affine=True, track_running_stats=True)
            (2): MishCuda()
          )
          (bn1): SyncBatchNorm(128, eps=0.0001, momentum=0.03, affine=True, track_running_stats=True)
          (bn2): SyncBatchNorm(128, eps=0.0001, momentum=0.03, affine=True, track_running_stats=True)
          (conv1): Conv2d(128, 128, kernel_size=(1, 1), stride=(1, 1), bias=False)
          (conv2): Conv2d(128, 128, kernel_size=(3, 3), stride=(1, 1), padding=(1, 1), bias=False)
          (activation): MishCuda()
        )
        (1): DarkBlock(
          (bn1): SyncBatchNorm(128, eps=0.0001, momentum=0.03, affine=True, track_running_stats=True)
          (bn2): SyncBatchNorm(128, eps=0.0001, momentum=0.03, affine=True, track_running_stats=True)
          (conv1): Conv2d(128, 128, kernel_size=(1, 1), stride=(1, 1), bias=False)
          (conv2): Conv2d(128, 128, kernel_size=(3, 3), stride=(1, 1), padding=(1, 1), bias=False)
          (activation): MishCuda()
        )
        (2): DarkBlock(
          (bn1): SyncBatchNorm(128, eps=0.0001, momentum=0.03, affine=True, track_running_stats=True)
          (bn2): SyncBatchNorm(128, eps=0.0001, momentum=0.03, affine=True, track_running_stats=True)
          (conv1): Conv2d(128, 128, kernel_size=(1, 1), stride=(1, 1), bias=False)
          (conv2): Conv2d(128, 128, kernel_size=(3, 3), stride=(1, 1), padding=(1, 1), bias=False)
          (activation): MishCuda()
        )
        (3): DarkBlock(
          (bn1): SyncBatchNorm(128, eps=0.0001, momentum=0.03, affine=True, track_running_stats=True)
          (bn2): SyncBatchNorm(128, eps=0.0001, momentum=0.03, affine=True, track_running_stats=True)
          (conv1): Conv2d(128, 128, kernel_size=(1, 1), stride=(1, 1), bias=False)
          (conv2): Conv2d(128, 128, kernel_size=(3, 3), stride=(1, 1), padding=(1, 1), bias=False)
          (activation): MishCuda()
        )
        (4): DarkBlock(
          (bn1): SyncBatchNorm(128, eps=0.0001, momentum=0.03, affine=True, track_running_stats=True)
          (bn2): SyncBatchNorm(128, eps=0.0001, momentum=0.03, affine=True, track_running_stats=True)
          (conv1): Conv2d(128, 128, kernel_size=(1, 1), stride=(1, 1), bias=False)
          (conv2): Conv2d(128, 128, kernel_size=(3, 3), stride=(1, 1), padding=(1, 1), bias=False)
          (activation): MishCuda()
        )
        (5): DarkBlock(
          (bn1): SyncBatchNorm(128, eps=0.0001, momentum=0.03, affine=True, track_running_stats=True)
          (bn2): SyncBatchNorm(128, eps=0.0001, momentum=0.03, affine=True, track_running_stats=True)
          (conv1): Conv2d(128, 128, kernel_size=(1, 1), stride=(1, 1), bias=False)
          (conv2): Conv2d(128, 128, kernel_size=(3, 3), stride=(1, 1), padding=(1, 1), bias=False)
          (activation): MishCuda()
        )
        (6): DarkBlock(
          (bn1): SyncBatchNorm(128, eps=0.0001, momentum=0.03, affine=True, track_running_stats=True)
          (bn2): SyncBatchNorm(128, eps=0.0001, momentum=0.03, affine=True, track_running_stats=True)
          (conv1): Conv2d(128, 128, kernel_size=(1, 1), stride=(1, 1), bias=False)
          (conv2): Conv2d(128, 128, kernel_size=(3, 3), stride=(1, 1), padding=(1, 1), bias=False)
          (activation): MishCuda()
        )
        (7): DarkBlock(
          (bn1): SyncBatchNorm(128, eps=0.0001, momentum=0.03, affine=True, track_running_stats=True)
          (bn2): SyncBatchNorm(128, eps=0.0001, momentum=0.03, affine=True, track_running_stats=True)
          (conv1): Conv2d(128, 128, kernel_size=(1, 1), stride=(1, 1), bias=False)
          (conv2): Conv2d(128, 128, kernel_size=(3, 3), stride=(1, 1), padding=(1, 1), bias=False)
          (activation): MishCuda()
        )
      )
      (partial_transition2): Sequential(
        (0): Conv2d(128, 128, kernel_size=(1, 1), stride=(1, 1), bias=False)
        (1): SyncBatchNorm(128, eps=0.0001, momentum=0.03, affine=True, track_running_stats=True)
        (2): MishCuda()
      )
      (fuse_transition): Sequential(
        (0): Conv2d(256, 256, kernel_size=(1, 1), stride=(1, 1), bias=False)
        (1): SyncBatchNorm(256, eps=0.0001, momentum=0.03, affine=True, track_running_stats=True)
        (2): MishCuda()
      )
    )
    (layer4): CrossStagePartialBlock(
      (base_layer): Sequential(
        (0): Conv2d(256, 512, kernel_size=(3, 3), stride=(2, 2), padding=(1, 1), bias=False)
        (1): SyncBatchNorm(512, eps=0.0001, momentum=0.03, affine=True, track_running_stats=True)
        (2): MishCuda()
      )
      (partial_transition1): Sequential(
        (0): Conv2d(512, 256, kernel_size=(1, 1), stride=(1, 1), bias=False)
        (1): SyncBatchNorm(256, eps=0.0001, momentum=0.03, affine=True, track_running_stats=True)
        (2): MishCuda()
      )
      (stage_layers): Sequential(
        (0): DarkBlock(
          (downsample): Sequential(
            (0): Conv2d(512, 256, kernel_size=(1, 1), stride=(1, 1), bias=False)
            (1): SyncBatchNorm(256, eps=0.0001, momentum=0.03, affine=True, track_running_stats=True)
            (2): MishCuda()
          )
          (bn1): SyncBatchNorm(256, eps=0.0001, momentum=0.03, affine=True, track_running_stats=True)
          (bn2): SyncBatchNorm(256, eps=0.0001, momentum=0.03, affine=True, track_running_stats=True)
          (conv1): Conv2d(256, 256, kernel_size=(1, 1), stride=(1, 1), bias=False)
          (conv2): Conv2d(256, 256, kernel_size=(3, 3), stride=(1, 1), padding=(1, 1), bias=False)
          (activation): MishCuda()
        )
        (1): DarkBlock(
          (bn1): SyncBatchNorm(256, eps=0.0001, momentum=0.03, affine=True, track_running_stats=True)
          (bn2): SyncBatchNorm(256, eps=0.0001, momentum=0.03, affine=True, track_running_stats=True)
          (conv1): Conv2d(256, 256, kernel_size=(1, 1), stride=(1, 1), bias=False)
          (conv2): Conv2d(256, 256, kernel_size=(3, 3), stride=(1, 1), padding=(1, 1), bias=False)
          (activation): MishCuda()
        )
        (2): DarkBlock(
          (bn1): SyncBatchNorm(256, eps=0.0001, momentum=0.03, affine=True, track_running_stats=True)
          (bn2): SyncBatchNorm(256, eps=0.0001, momentum=0.03, affine=True, track_running_stats=True)
          (conv1): Conv2d(256, 256, kernel_size=(1, 1), stride=(1, 1), bias=False)
          (conv2): Conv2d(256, 256, kernel_size=(3, 3), stride=(1, 1), padding=(1, 1), bias=False)
          (activation): MishCuda()
        )
        (3): DarkBlock(
          (bn1): SyncBatchNorm(256, eps=0.0001, momentum=0.03, affine=True, track_running_stats=True)
          (bn2): SyncBatchNorm(256, eps=0.0001, momentum=0.03, affine=True, track_running_stats=True)
          (conv1): Conv2d(256, 256, kernel_size=(1, 1), stride=(1, 1), bias=False)
          (conv2): Conv2d(256, 256, kernel_size=(3, 3), stride=(1, 1), padding=(1, 1), bias=False)
          (activation): MishCuda()
        )
        (4): DarkBlock(
          (bn1): SyncBatchNorm(256, eps=0.0001, momentum=0.03, affine=True, track_running_stats=True)
          (bn2): SyncBatchNorm(256, eps=0.0001, momentum=0.03, affine=True, track_running_stats=True)
          (conv1): Conv2d(256, 256, kernel_size=(1, 1), stride=(1, 1), bias=False)
          (conv2): Conv2d(256, 256, kernel_size=(3, 3), stride=(1, 1), padding=(1, 1), bias=False)
          (activation): MishCuda()
        )
        (5): DarkBlock(
          (bn1): SyncBatchNorm(256, eps=0.0001, momentum=0.03, affine=True, track_running_stats=True)
          (bn2): SyncBatchNorm(256, eps=0.0001, momentum=0.03, affine=True, track_running_stats=True)
          (conv1): Conv2d(256, 256, kernel_size=(1, 1), stride=(1, 1), bias=False)
          (conv2): Conv2d(256, 256, kernel_size=(3, 3), stride=(1, 1), padding=(1, 1), bias=False)
          (activation): MishCuda()
        )
        (6): DarkBlock(
          (bn1): SyncBatchNorm(256, eps=0.0001, momentum=0.03, affine=True, track_running_stats=True)
          (bn2): SyncBatchNorm(256, eps=0.0001, momentum=0.03, affine=True, track_running_stats=True)
          (conv1): Conv2d(256, 256, kernel_size=(1, 1), stride=(1, 1), bias=False)
          (conv2): Conv2d(256, 256, kernel_size=(3, 3), stride=(1, 1), padding=(1, 1), bias=False)
          (activation): MishCuda()
        )
        (7): DarkBlock(
          (bn1): SyncBatchNorm(256, eps=0.0001, momentum=0.03, affine=True, track_running_stats=True)
          (bn2): SyncBatchNorm(256, eps=0.0001, momentum=0.03, affine=True, track_running_stats=True)
          (conv1): Conv2d(256, 256, kernel_size=(1, 1), stride=(1, 1), bias=False)
          (conv2): Conv2d(256, 256, kernel_size=(3, 3), stride=(1, 1), padding=(1, 1), bias=False)
          (activation): MishCuda()
        )
      )
      (partial_transition2): Sequential(
        (0): Conv2d(256, 256, kernel_size=(1, 1), stride=(1, 1), bias=False)
        (1): SyncBatchNorm(256, eps=0.0001, momentum=0.03, affine=True, track_running_stats=True)
        (2): MishCuda()
      )
      (fuse_transition): Sequential(
        (0): Conv2d(512, 512, kernel_size=(1, 1), stride=(1, 1), bias=False)
        (1): SyncBatchNorm(512, eps=0.0001, momentum=0.03, affine=True, track_running_stats=True)
        (2): MishCuda()
      )
    )
    (layer5): CrossStagePartialBlock(
      (base_layer): Sequential(
        (0): Conv2d(512, 1024, kernel_size=(3, 3), stride=(1, 1), padding=(2, 2), dilation=(2, 2), bias=False)
        (1): SyncBatchNorm(1024, eps=0.0001, momentum=0.03, affine=True, track_running_stats=True)
        (2): MishCuda()
      )
      (partial_transition1): Sequential(
        (0): Conv2d(1024, 512, kernel_size=(1, 1), stride=(1, 1), bias=False)
        (1): SyncBatchNorm(512, eps=0.0001, momentum=0.03, affine=True, track_running_stats=True)
        (2): MishCuda()
      )
      (stage_layers): Sequential(
        (0): DarkBlock(
          (downsample): Sequential(
            (0): Conv2d(1024, 512, kernel_size=(1, 1), stride=(1, 1), bias=False)
            (1): SyncBatchNorm(512, eps=0.0001, momentum=0.03, affine=True, track_running_stats=True)
            (2): MishCuda()
          )
          (bn1): SyncBatchNorm(512, eps=0.0001, momentum=0.03, affine=True, track_running_stats=True)
          (bn2): SyncBatchNorm(512, eps=0.0001, momentum=0.03, affine=True, track_running_stats=True)
          (conv1): Conv2d(512, 512, kernel_size=(1, 1), stride=(1, 1), bias=False)
          (conv2): Conv2d(512, 512, kernel_size=(3, 3), stride=(1, 1), padding=(2, 2), dilation=(2, 2), bias=False)
          (activation): MishCuda()
        )
        (1): DarkBlock(
          (bn1): SyncBatchNorm(512, eps=0.0001, momentum=0.03, affine=True, track_running_stats=True)
          (bn2): SyncBatchNorm(512, eps=0.0001, momentum=0.03, affine=True, track_running_stats=True)
          (conv1): Conv2d(512, 512, kernel_size=(1, 1), stride=(1, 1), bias=False)
          (conv2): Conv2d(512, 512, kernel_size=(3, 3), stride=(1, 1), padding=(2, 2), dilation=(2, 2), bias=False)
          (activation): MishCuda()
        )
        (2): DarkBlock(
          (bn1): SyncBatchNorm(512, eps=0.0001, momentum=0.03, affine=True, track_running_stats=True)
          (bn2): SyncBatchNorm(512, eps=0.0001, momentum=0.03, affine=True, track_running_stats=True)
          (conv1): Conv2d(512, 512, kernel_size=(1, 1), stride=(1, 1), bias=False)
          (conv2): Conv2d(512, 512, kernel_size=(3, 3), stride=(1, 1), padding=(2, 2), dilation=(2, 2), bias=False)
          (activation): MishCuda()
        )
        (3): DarkBlock(
          (bn1): SyncBatchNorm(512, eps=0.0001, momentum=0.03, affine=True, track_running_stats=True)
          (bn2): SyncBatchNorm(512, eps=0.0001, momentum=0.03, affine=True, track_running_stats=True)
          (conv1): Conv2d(512, 512, kernel_size=(1, 1), stride=(1, 1), bias=False)
          (conv2): Conv2d(512, 512, kernel_size=(3, 3), stride=(1, 1), padding=(2, 2), dilation=(2, 2), bias=False)
          (activation): MishCuda()
        )
      )
      (partial_transition2): Sequential(
        (0): Conv2d(512, 512, kernel_size=(1, 1), stride=(1, 1), bias=False)
        (1): SyncBatchNorm(512, eps=0.0001, momentum=0.03, affine=True, track_running_stats=True)
        (2): MishCuda()
      )
      (fuse_transition): Sequential(
        (0): Conv2d(1024, 1024, kernel_size=(1, 1), stride=(1, 1), bias=False)
        (1): SyncBatchNorm(1024, eps=0.0001, momentum=0.03, affine=True, track_running_stats=True)
        (2): MishCuda()
      )
    )
  )
  (encoder): DilatedEncoder(
    (lateral_conv): Conv2d(1024, 512, kernel_size=(1, 1), stride=(1, 1))
    (lateral_norm): SyncBatchNorm(512, eps=1e-05, momentum=0.1, affine=True, track_running_stats=True)
    (fpn_conv): Conv2d(512, 512, kernel_size=(3, 3), stride=(1, 1), padding=(1, 1))
    (fpn_norm): SyncBatchNorm(512, eps=1e-05, momentum=0.1, affine=True, track_running_stats=True)
    (dilated_encoder_blocks): Sequential(
      (0): Bottleneck(
        (conv1): Sequential(
          (0): Conv2d(512, 128, kernel_size=(1, 1), stride=(1, 1))
          (1): SyncBatchNorm(128, eps=1e-05, momentum=0.1, affine=True, track_running_stats=True)
          (2): LeakyReLU(negative_slope=0.1, inplace=True)
        )
        (conv2): Sequential(
          (0): Conv2d(128, 128, kernel_size=(3, 3), stride=(1, 1), padding=(1, 1))
          (1): SyncBatchNorm(128, eps=1e-05, momentum=0.1, affine=True, track_running_stats=True)
          (2): LeakyReLU(negative_slope=0.1, inplace=True)
        )
        (conv3): Sequential(
          (0): Conv2d(128, 512, kernel_size=(1, 1), stride=(1, 1))
          (1): SyncBatchNorm(512, eps=1e-05, momentum=0.1, affine=True, track_running_stats=True)
          (2): LeakyReLU(negative_slope=0.1, inplace=True)
        )
      )
      (1): Bottleneck(
        (conv1): Sequential(
          (0): Conv2d(512, 128, kernel_size=(1, 1), stride=(1, 1))
          (1): SyncBatchNorm(128, eps=1e-05, momentum=0.1, affine=True, track_running_stats=True)
          (2): LeakyReLU(negative_slope=0.1, inplace=True)
        )
        (conv2): Sequential(
          (0): Conv2d(128, 128, kernel_size=(3, 3), stride=(1, 1), padding=(2, 2), dilation=(2, 2))
          (1): SyncBatchNorm(128, eps=1e-05, momentum=0.1, affine=True, track_running_stats=True)
          (2): LeakyReLU(negative_slope=0.1, inplace=True)
        )
        (conv3): Sequential(
          (0): Conv2d(128, 512, kernel_size=(1, 1), stride=(1, 1))
          (1): SyncBatchNorm(512, eps=1e-05, momentum=0.1, affine=True, track_running_stats=True)
          (2): LeakyReLU(negative_slope=0.1, inplace=True)
        )
      )
      (2): Bottleneck(
        (conv1): Sequential(
          (0): Conv2d(512, 128, kernel_size=(1, 1), stride=(1, 1))
          (1): SyncBatchNorm(128, eps=1e-05, momentum=0.1, affine=True, track_running_stats=True)
          (2): LeakyReLU(negative_slope=0.1, inplace=True)
        )
        (conv2): Sequential(
          (0): Conv2d(128, 128, kernel_size=(3, 3), stride=(1, 1), padding=(3, 3), dilation=(3, 3))
          (1): SyncBatchNorm(128, eps=1e-05, momentum=0.1, affine=True, track_running_stats=True)
          (2): LeakyReLU(negative_slope=0.1, inplace=True)
        )
        (conv3): Sequential(
          (0): Conv2d(128, 512, kernel_size=(1, 1), stride=(1, 1))
          (1): SyncBatchNorm(512, eps=1e-05, momentum=0.1, affine=True, track_running_stats=True)
          (2): LeakyReLU(negative_slope=0.1, inplace=True)
        )
      )
      (3): Bottleneck(
        (conv1): Sequential(
          (0): Conv2d(512, 128, kernel_size=(1, 1), stride=(1, 1))
          (1): SyncBatchNorm(128, eps=1e-05, momentum=0.1, affine=True, track_running_stats=True)
          (2): LeakyReLU(negative_slope=0.1, inplace=True)
        )
        (conv2): Sequential(
          (0): Conv2d(128, 128, kernel_size=(3, 3), stride=(1, 1), padding=(4, 4), dilation=(4, 4))
          (1): SyncBatchNorm(128, eps=1e-05, momentum=0.1, affine=True, track_running_stats=True)
          (2): LeakyReLU(negative_slope=0.1, inplace=True)
        )
        (conv3): Sequential(
          (0): Conv2d(128, 512, kernel_size=(1, 1), stride=(1, 1))
          (1): SyncBatchNorm(512, eps=1e-05, momentum=0.1, affine=True, track_running_stats=True)
          (2): LeakyReLU(negative_slope=0.1, inplace=True)
        )
      )
      (4): Bottleneck(
        (conv1): Sequential(
          (0): Conv2d(512, 128, kernel_size=(1, 1), stride=(1, 1))
          (1): SyncBatchNorm(128, eps=1e-05, momentum=0.1, affine=True, track_running_stats=True)
          (2): LeakyReLU(negative_slope=0.1, inplace=True)
        )
        (conv2): Sequential(
          (0): Conv2d(128, 128, kernel_size=(3, 3), stride=(1, 1), padding=(5, 5), dilation=(5, 5))
          (1): SyncBatchNorm(128, eps=1e-05, momentum=0.1, affine=True, track_running_stats=True)
          (2): LeakyReLU(negative_slope=0.1, inplace=True)
        )
        (conv3): Sequential(
          (0): Conv2d(128, 512, kernel_size=(1, 1), stride=(1, 1))
          (1): SyncBatchNorm(512, eps=1e-05, momentum=0.1, affine=True, track_running_stats=True)
          (2): LeakyReLU(negative_slope=0.1, inplace=True)
        )
      )
      (5): Bottleneck(
        (conv1): Sequential(
          (0): Conv2d(512, 128, kernel_size=(1, 1), stride=(1, 1))
          (1): SyncBatchNorm(128, eps=1e-05, momentum=0.1, affine=True, track_running_stats=True)
          (2): LeakyReLU(negative_slope=0.1, inplace=True)
        )
        (conv2): Sequential(
          (0): Conv2d(128, 128, kernel_size=(3, 3), stride=(1, 1), padding=(6, 6), dilation=(6, 6))
          (1): SyncBatchNorm(128, eps=1e-05, momentum=0.1, affine=True, track_running_stats=True)
          (2): LeakyReLU(negative_slope=0.1, inplace=True)
        )
        (conv3): Sequential(
          (0): Conv2d(128, 512, kernel_size=(1, 1), stride=(1, 1))
          (1): SyncBatchNorm(512, eps=1e-05, momentum=0.1, affine=True, track_running_stats=True)
          (2): LeakyReLU(negative_slope=0.1, inplace=True)
        )
      )
      (6): Bottleneck(
        (conv1): Sequential(
          (0): Conv2d(512, 128, kernel_size=(1, 1), stride=(1, 1))
          (1): SyncBatchNorm(128, eps=1e-05, momentum=0.1, affine=True, track_running_stats=True)
          (2): LeakyReLU(negative_slope=0.1, inplace=True)
        )
        (conv2): Sequential(
          (0): Conv2d(128, 128, kernel_size=(3, 3), stride=(1, 1), padding=(7, 7), dilation=(7, 7))
          (1): SyncBatchNorm(128, eps=1e-05, momentum=0.1, affine=True, track_running_stats=True)
          (2): LeakyReLU(negative_slope=0.1, inplace=True)
        )
        (conv3): Sequential(
          (0): Conv2d(128, 512, kernel_size=(1, 1), stride=(1, 1))
          (1): SyncBatchNorm(512, eps=1e-05, momentum=0.1, affine=True, track_running_stats=True)
          (2): LeakyReLU(negative_slope=0.1, inplace=True)
        )
      )
      (7): Bottleneck(
        (conv1): Sequential(
          (0): Conv2d(512, 128, kernel_size=(1, 1), stride=(1, 1))
          (1): SyncBatchNorm(128, eps=1e-05, momentum=0.1, affine=True, track_running_stats=True)
          (2): LeakyReLU(negative_slope=0.1, inplace=True)
        )
        (conv2): Sequential(
          (0): Conv2d(128, 128, kernel_size=(3, 3), stride=(1, 1), padding=(8, 8), dilation=(8, 8))
          (1): SyncBatchNorm(128, eps=1e-05, momentum=0.1, affine=True, track_running_stats=True)
          (2): LeakyReLU(negative_slope=0.1, inplace=True)
        )
        (conv3): Sequential(
          (0): Conv2d(128, 512, kernel_size=(1, 1), stride=(1, 1))
          (1): SyncBatchNorm(512, eps=1e-05, momentum=0.1, affine=True, track_running_stats=True)
          (2): LeakyReLU(negative_slope=0.1, inplace=True)
        )
      )
    )
  )
  (decoder): Decoder(
    (cls_subnet): Sequential(
      (0): Conv2d(512, 512, kernel_size=(3, 3), stride=(1, 1), padding=(1, 1))
      (1): SyncBatchNorm(512, eps=1e-05, momentum=0.1, affine=True, track_running_stats=True)
      (2): LeakyReLU(negative_slope=0.1, inplace=True)
      (3): Conv2d(512, 512, kernel_size=(3, 3), stride=(1, 1), padding=(1, 1))
      (4): SyncBatchNorm(512, eps=1e-05, momentum=0.1, affine=True, track_running_stats=True)
      (5): LeakyReLU(negative_slope=0.1, inplace=True)
    )
    (bbox_subnet): Sequential(
      (0): Conv2d(512, 512, kernel_size=(3, 3), stride=(1, 1), padding=(1, 1))
      (1): SyncBatchNorm(512, eps=1e-05, momentum=0.1, affine=True, track_running_stats=True)
      (2): LeakyReLU(negative_slope=0.1, inplace=True)
      (3): Conv2d(512, 512, kernel_size=(3, 3), stride=(1, 1), padding=(1, 1))
      (4): SyncBatchNorm(512, eps=1e-05, momentum=0.1, affine=True, track_running_stats=True)
      (5): LeakyReLU(negative_slope=0.1, inplace=True)
      (6): Conv2d(512, 512, kernel_size=(3, 3), stride=(1, 1), padding=(1, 1))
      (7): SyncBatchNorm(512, eps=1e-05, momentum=0.1, affine=True, track_running_stats=True)
      (8): LeakyReLU(negative_slope=0.1, inplace=True)
      (9): Conv2d(512, 512, kernel_size=(3, 3), stride=(1, 1), padding=(1, 1))
      (10): SyncBatchNorm(512, eps=1e-05, momentum=0.1, affine=True, track_running_stats=True)
      (11): LeakyReLU(negative_slope=0.1, inplace=True)
    )
    (cls_score): Conv2d(512, 480, kernel_size=(3, 3), stride=(1, 1), padding=(1, 1))
    (bbox_pred): Conv2d(512, 24, kernel_size=(3, 3), stride=(1, 1), padding=(1, 1))
    (object_pred): Conv2d(512, 6, kernel_size=(3, 3), stride=(1, 1), padding=(1, 1))
  )
  (anchor_generator): DefaultAnchorGenerator(
    (cell_anchors): BufferList()
  )
  (anchor_matcher): UniformMatcher()
)
[12/08 04:46:30] fvcore.common.checkpoint INFO: [Checkpointer] Loading from /content/YOLOFtest/out_weights/YOLOF_CSP_D_53_DC5_9x.pth ...
[12/08 04:46:32] d2.data.datasets.coco WARNING: 
Category ids in annotations are not in [1, #categories]! We'll apply a mapping for you.
…
